model.pkl (torch, 167719 bytes, 20 tensors)

layer1.0.weight f4 [16, 1, 5, 5]
0	0x3ec05638	0.3756578
1	0xbf817d45	-1.0116354
2	0xc0302595	-2.7522938
3	0xc00dca70	-2.2154808
4	0x40093edf	2.1444623
5	0x3fcdaa6c	1.6067634
6	0x3f8b43e1	1.088009
7	0xc002a9fe	-2.0416255
8	0xc04db886	-3.2143874
9	0xc008c7d5	-2.1371968
10	0x3e41de1f	0.18932389
11	0x4003bf11	2.0585368
12	0x4041876b	3.0238903
13	0x3fb8bda1	1.443287
14	0xbfbc5c96	-1.4715755
15	0x3c354454	0.011063654
16	0xbf889074	-1.0669084
17	0x3f5ce2de	0.8628367
18	0x3f9079e6	1.12872
19	0xbfb96562	-1.4484065
20	0xbe8726b6	-0.26396722
21	0xbf8833a1	-1.0640756
22	0xbe4355f0	-0.19075751
23	0x3f09fdb1	0.5390273
24	0x3f7a0c50	0.9767504
25	0xbf2d2dfb	-0.67648286
26	0x3f5a275e	0.8521632
27	0x3ee7ef36	0.4529969
28	0xbf4829a6	-0.7818855
29	0xc032e745	-2.7953656
30	0xbeab157d	-0.33414832
31	0x3fba9c51	1.4578954
32	0x4039bebe	2.902267
33	0xbf45e14e	-0.7729691
34	0xc06572ea	-3.5851388
35	0xbf1f6f50	-0.62279224
36	0x400d5357	2.2082117
37	0x3cfc60d7	0.030807896
38	0x3ab808fd	0.0014040765
39	0xc03438a6	-2.8159575
40	0x3ef8f680	0.48625565
41	0x40096f94	2.1474352
42	0x3f978ded	1.1840187
43	0x3eb3b98e	0.35102504
44	0xc004241e	-2.0647044
45	0x3f7f0768	0.99620676
46	0x3fe4f6b9	1.7887794
47	0x400aea70	2.170559
48	0x3f208a26	0.627108
49	0x3f0f7073	0.5603096
50	0x3efe04f4	0.49613154
51	0xbf26cc46	-0.65155447
52	0xbe6772c0	-0.22602367
53	0x3e9eb264	0.30995476
54	0xbfd0a13a	-1.6299202
55	0x3eee7b5f	0.465785
56	0xbeccfb9c	-0.40035713
57	0x3fabd323	1.3423809
58	0x3fdfe6c1	1.7492296
59	0xc092b429	-4.584492
60	0x3dc0ff81	0.094237335
61	0xbf68b40e	-0.9089974
62	0x401275e1	2.2884448
63	0x4086ae0f	4.2087474
64	0xbfb48895	-1.4104182
65	0xbf8521b2	-1.0400908
66	0xc031aaab	-2.7760417
67	0xbf5bd1bc	-0.85866904
68	0x3fe2742c	1.7691703
69	0xbefe02c1	-0.49611476
70	0x3f1c8c54	0.61151624
71	0xbfaf8ba9	-1.3714496
72	0x3e7b3614	0.24532348
73	0x3e256c8a	0.16154686
74	0x3e9c5fa5	0.3054172
75	0x3ece8bf4	0.4034115
76	0x3f249e48	0.6430402
77	0xbf04910b	-0.5178382
78	0xbf748d2f	-0.9552793
79	0x3e64face	0.223613
80	0xbeb9ff84	-0.36327755
81	0xbf20e965	-0.6285613
82	0xbfe47e1b	-1.7850984
83	0x3f4d3a59	0.80167156
84	0x4046fd4e	3.1092105
85	0xbf8e64b3	-1.1124481
86	0xbfbf89ee	-1.4963968
87	0xc026c2e7	-2.605646
88	0x3fae350e	1.3609941
89	0x40394115	2.8945973
90	0xbf8055a4	-1.0026135
91	0xbd84dddd	-0.064876296
92	0xbf7c7614	-0.9861767
93	0xbf0fc464	-0.56159043
94	0x40402e80	3.0028381
95	0xbdd769d6	-0.105182335
96	0xbf78ca89	-0.97184044
97	0xc01cf171	-2.4522364
98	0xbfc37af3	-1.5271896
99	0x3f1aec7d	0.605171
100	0x3f885bba	1.0652993
101	0x3ef0a80e	0.47003216
102	0xbf696f9e	-0.9118594
103	0xbf1dc59a	-0.6162964
104	0xbf48cdc6	-0.78438985
105	0x3ec5e18b	0.38648638
106	0xc07f5935	-3.9898198
107	0xc0301631	-2.7513545
108	0xbacd98e9	-0.001568583
109	0x3e1ee093	0.15515356
110	0xbf822cd8	-1.0169935
111	0xc0036aea	-2.0534005
112	0x3fdf6128	1.7451525
113	0x402a90a7	2.6650789
114	0x3f561587	0.836266
115	0x3e8da2ff	0.2766342
116	0x4011d813	2.2788131
117	0x40478383	3.1174018
118	0x3e0dfeba	0.13866702
119	0xbf5d375e	-0.8641261
120	0x3f8f7a33	1.1209167
121	0x3fa20cb1	1.2660123
122	0xbe92696e	-0.2859606
123	0xbfc264bf	-1.5186995
124	0xbd98ff6a	-0.07470591
125	0x3f171b99	0.59026486
126	0x3ee66c48	0.45004487
127	0xbffd21c1	-1.9775926
128	0xbe9b1506	-0.30289477
129	0xbf823902	-1.0173647
130	0x40048e21	2.0711749
131	0xbdad3346	-0.08457045
132	0xbf9e62b3	-1.2373871
133	0xbfe6ccf1	-1.8031293
134	0xc02307d0	-2.5473518
135	0x4021cde2	2.528191
136	0xbedc13e0	-0.42983913
137	0xc0222f0f	-2.5341222
138	0xbf15de1a	-0.58542025
139	0xbd91371c	-0.070905894
140	0x3fffe5b8	1.999198
141	0xc081c20d	-4.054938
142	0xc00598ae	-2.0874438
143	0x3f9e7053	1.2378029
144	0x3f583e82	0.8447038
145	0xbfaf5f4b	-1.3700956
146	0xc013b8bc	-2.3081503
147	0x3f117115	0.56813174
148	0x3f4c390d	0.7977455
149	0x3efb9185	0.4913446
150	0x3c14ab6a	0.009074071
151	0x3bc7345b	0.0060792393
152	0xbf0ef56e	-0.55843246
153	0xbebe448f	-0.3716168
154	0xbe8590cd	-0.26087037
155	0x3f3a431e	0.7275866
156	0x3e806f42	0.25084883
157	0x3ee0e87d	0.43927374
158	0x3ee29b8e	0.44259304
159	0x3d87f426	0.066383645
160	0x3eacfcf1	0.3378673
161	0xbe13f7d7	-0.14450012
162	0x3e3e6348	0.1859256
163	0x3f0d897f	0.5528793
164	0xbe9e0864	-0.30865777
165	0x3efc6b1b	0.49300465
166	0x3ee7e3c6	0.45290965
167	0x3f39a6fa	0.7252041
168	0x3f4d61e3	0.8022749
169	0x3ea93b0b	0.3305286
170	0x3f59758c	0.8494499
171	0x3f2ab97c	0.66689277
172	0x3f0a2c66	0.53973997
173	0x3ef1bc11	0.47213796
174	0x3e406a2a	0.18790498
175	0x3f8b8498	1.0899839
176	0x3fca43a1	1.5801889
177	0x3f897288	1.0738077
178	0x3fa72a7d	1.3059841
179	0x3fe56604	1.7921758
180	0x3f1b7767	0.6072907
181	0x3eb745fc	0.3579558
182	0xbfc072df	-1.5035056
183	0x3fbd5589	1.4791728
184	0x40176695	2.365636
185	0xc03ad4b5	-2.9192326
186	0xc00f7d2f	-2.2420156
187	0x3e1cbea7	0.15307103
188	0x3f9fef86	1.2494972
189	0x3ffb8c5b	1.9652208
190	0xbfb66d2e	-1.4252069
191	0x3e9b6f1e	0.30358213
192	0x3f7444cc	0.95417476
193	0x3f9ea8d6	1.2395275
194	0x405b1ca4	3.423623
195	0xbfdd91f4	-1.7310166
196	0xbf0f5aba	-0.5599781
197	0xbfa89520	-1.3170509
198	0xbf6d59cf	-0.9271516
199	0x3f1e2c9b	0.6178681
200	0x3d8550d2	0.06509556
201	0x3f3c0f95	0.73461276
202	0x3f9ead15	1.239657
203	0x402a12a4	2.6573877
204	0x3f8feed3	1.1244758
205	0xbf49fb47	-0.78899044
206	0xbfe8b422	-1.8179972
207	0xc018665f	-2.3812482
208	0xc037b3da	-2.8703523
209	0xbf9dcd75	-1.2328326
210	0x3d2e7109	0.042588267
211	0xc014580b	-2.3178737
212	0xc0257d92	-2.5857892
213	0xc036b977	-2.8550699
214	0xc0189e95	-2.384679
215	0x3ef54838	0.4790666
216	0xbd27e7e8	-0.040992647
217	0x3f42dc53	0.7611744
218	0x3f4db9bf	0.8036155
219	0x3e48fe38	0.19628227
220	0x3ffd2e7b	1.977981
221	0x3f79ccfa	0.97578394
222	0x3fb5f185	1.4214331
223	0x3fb35a48	1.4011927
224	0x3fc34d9e	1.5258062
225	0xbe630525	-0.22169931
226	0xbd733202	-0.059373863
227	0xbf9ca72e	-1.2238519
228	0xbfa39671	-1.2780286
229	0xc03a7e69	-2.9139655
230	0xbf884716	-1.0646694
231	0xc03acebb	-2.9188678
232	0xbfe5deef	-1.7958659
233	0xbe0d4b33	-0.13798217
234	0x3ec8607d	0.39136115
235	0xc00f9ac7	-2.2438219
236	0xbfdb124e	-1.7114961
237	0x3e83385e	0.25628942
238	0x3fe7a1cf	1.8096255
239	0x3fef1613	1.8678612
240	0xc035a0bb	-2.8379352
241	0xbf05c479	-0.5225292
242	0x3f60cb88	0.87810564
243	0x3ffc53dd	1.9713093
244	0xbe829ec1	-0.25511745
245	0xbfc29f24	-1.5204816
246	0x3d0c08ff	0.034188267
247	0x3ee833e2	0.45352083
248	0x4011d38b	2.2785366
249	0xbf0e0fb7	-0.5549273
250	0xbec830bd	-0.39099684
251	0x3e2c4b66	0.16825637
252	0x3f1d80a5	0.6152442
253	0x40211094	2.5166368
254	0xbe9b675a	-0.30352288
255	0xbf55cb7a	-0.83513606

layer1.0.bias f4 [16]
0	0xbe56c307	-0.20972835
1	0xbb6f3cac	-0.003650467
2	0x3eb238a1	0.3480883
3	0x3d7807c9	0.0605543
4	0xbc33d9a3	-0.010977182
5	0x3e3f4fb5	0.1868275
6	0x3d87a4e1	0.06623245
7	0xbd97c643	-0.07410862
8	0x3f22b44f	0.6355638
9	0xbac103f8	-0.0014725914
10	0xbd850506	-0.06495099
11	0xbe9b93f0	-0.30386305
12	0xbe2f1a14	-0.17099792
13	0xbf19ee14	-0.60128903
14	0x3e9b372e	0.30315536
15	0xbe7dc178	-0.24780834

layer1.1.weight f4 [16]
0	0x3ffa0975	1.9534136
1	0x3fd7b3ba	1.6851723
2	0x4037a1db	2.8692539
3	0x401ace66	2.4188476
4	0x3faf5191	1.3696767
5	0x4022524a	2.5362725
6	0x3e47e9ef	0.19522832
7	0x3f5a930c	0.85380626
8	0x40289e9b	2.6346805
9	0x40047058	2.069357
10	0x3fb244ec	1.3927283
11	0x403ddd43	2.9666297
12	0x4084e517	4.152965
13	0x4015e4cb	2.3420894
14	0x3fb38771	1.4025708
15	0x4076d381	3.8566592

layer1.1.bias f4 [16]
0	0xbf013b54	-0.5048115
1	0xbf7d92d1	-0.9905215
2	0xbfbf5c57	-1.4950055
3	0xbf5d6679	-0.86484486
4	0xbeb9890f	-0.3623738
5	0xbfa28fa2	-1.2700083
6	0xbf7105ab	-0.94149274
7	0xbf8f4fbb	-1.1196207
8	0x3fdab0dc	1.7085223
9	0xbf8f8d78	-1.1215048
10	0xbfbe61c1	-1.4873582
11	0x3eae40ec	0.34033906
12	0xbf0dd192	-0.55397904
13	0xbf8c261c	-1.094913
14	0xbf32c6b6	-0.6983446
15	0xbf0f08b6	-0.55872667

layer1.1.running_mean f4 [16]
0	0xbec9daf6	-0.39424866
1	0xbd953cd7	-0.07286995
2	0x3d374ab0	0.044748962
3	0x3dd87c97	0.105706386
4	0xbca9be24	-0.020720549
5	0xbc6f50af	-0.014606639
6	0x3e97bb68	0.29635167
7	0x3eb16316	0.3464591
8	0x3f69640f	0.911683
9	0xbf025f5b	-0.5092675
10	0x3e445c46	0.19175825
11	0xbf5a9739	-0.85387
12	0xbee96810	-0.45587206
13	0xbf2aac2b	-0.6666896
14	0x3f5ce92a	0.8629328
15	0xbf1f11ae	-0.6213635

layer1.1.running_var f4 [16]
0	0x4220bfbe	40.18725
1	0x4304da52	132.85281
2	0x41da1c58	27.26384
3	0x42c3d907	97.92388
4	0x4252deb4	52.717484
5	0x4312a759	146.6537
6	0x41dbebc5	27.490122
7	0x4307f467	135.9547
8	0x42b73bb9	91.616646
9	0x4326f6b3	166.96367
10	0x4356f300	214.94922
11	0x431640bb	150.25285
12	0x435446ce	212.27658
13	0x41b42c30	22.521576
14	0x42ffbd5e	127.86986
15	0x4387c138	271.50952

layer2.0.weight f4 [32, 16, 3, 3]
0	0xbf254fbc	-0.6457479
1	0xc00aaae1	-2.1666796
2	0xbf8c3dfb	-1.0956415
3	0xbf94fef9	-1.1640311
4	0xbeb1d532	-0.34732968
5	0xbfba8c5c	-1.4574084
6	0x3efb940f	0.49136397
7	0x3f2ba74d	0.67052156
8	0x3f1dc58e	0.6162957
9	0xbd6ea16b	-0.05825941
10	0xbef56d22	-0.47934824
11	0x3e44ec72	0.19230822
12	0x3f2c5904	0.6732333
13	0xbe44c073	-0.19214039
14	0xbe474392	-0.1945937
15	0x402ca928	2.6978245
16	0x4005bd10	2.0896645
17	0x3f92d67a	1.1471703
18	0xc01a4a5d	-2.4107888
19	0xbf1f7c23	-0.6229879
20	0xc01b4ebe	-2.426681
21	0xbdaf368a	-0.085553244
22	0xbedecc42	-0.4351521
23	0xc0062ae5	-2.096368
24	0x3ca80993	0.020512378
25	0xbf3664b3	-0.71247405
26	0xbf958b76	-1.1683185
27	0xc0a55c03	-5.167482
28	0xc0205e6e	-2.5057635
29	0x3e80088b	0.25006518
30	0xc05e33ef	-3.4719198
31	0xc0122287	-2.2833574
32	0xbf949a6c	-1.1609626
33	0xbf8299b7	-1.020316
34	0x3eb9faf8	0.36324286
35	0xbfa955ae	-1.3229272
36	0xbf3230ca	-0.69605696
37	0xbfa978ca	-1.3239987
38	0xc0346433	-2.8186157
39	0xc0428273	-3.039212
40	0xbf48f33f	-0.78496164
41	0xbfc3be55	-1.529246
42	0x3ff80e72	1.9379408
43	0x3f45c3d5	0.7725194
44	0x3dcf9874	0.101365
45	0xbf099e88	-0.53757524
46	0x3fbe5c80	1.4871979
47	0x3fae01bb	1.3594278
48	0x3d34d0cb	0.044144433
49	0xc00afff6	-2.1718726
50	0xbfb214e3	-1.3912624
51	0xbf98ffe6	-1.1953094
52	0x3e4b4b4e	0.19852945
53	0x3fd5c4ef	1.6700724
54	0x3db22b89	0.0869971
55	0xbe1e1a27	-0.15439664
56	0xbec01b61	-0.37520888
57	0x3da16385	0.0788031
58	0xbda4a219	-0.0803873
59	0xbe8541d6	-0.2602679
60	0x3f14b5d5	0.58089954
61	0x3f35d49e	0.71027553
62	0x3ecca317	0.39968178
63	0xbfcde9a4	-1.6086926
64	0xbffc2825	-1.9699751
65	0xc0263a62	-2.5973134
66	0x3e4fb8a7	0.20285283
67	0xbd951ea4	-0.07281235
68	0xbffc3324	-1.9703107
69	0x40028a72	2.0397
70	0xbf7959a3	-0.974024
71	0xbf0fc86b	-0.5616519
72	0xbfe3d83c	-1.7800364
73	0xbfc89158	-1.5669355
74	0xbffdad1c	-1.9818454
75	0x3d931bf7	0.07183068
76	0x3f4e0769	0.80480057
77	0x3e5555d8	0.20833528
78	0x3f599dda	0.8500649
79	0x3fe67f32	1.8007567
80	0x400ee317	2.2326105
81	0xbff29edd	-1.8954731
82	0xc06dabc8	-3.7136097
83	0xc04c625c	-3.1935034
84	0xbeb99a06	-0.36250323
85	0xbf2658a3	-0.64979
86	0xbf9a1ef7	-1.20407
87	0x3f8858b5	1.0652071
88	0xbe203332	-0.1564453
89	0x3eb4290d	0.3518757
90	0xbf8262b2	-1.018637
91	0xc00493d2	-2.0715222
92	0xc03a8ddb	-2.9149082
93	0x3ad64797	0.001634824
94	0xbfb48f67	-1.4106263
95	0xc0121abd	-2.282882
96	0x3fb2ac2b	1.3958791
97	0xbe9234ee	-0.28556007
98	0xbee27089	-0.44226483
99	0x3f1da951	0.6158648
100	0xc009902d	-2.1494248
101	0xc045a9bb	-3.0884845
102	0xbfb39399	-1.4029418
103	0xbfb51039	-1.4145576
104	0xbfdedff1	-1.7412091
105	0xbf43d61b	-0.76498574
106	0xbf95e901	-1.1711732
107	0xbfa27f0c	-1.2695022
108	0xbff8a3ac	-1.9424949
109	0x3f858f17	1.0434293
110	0x407b18ad	3.923381
111	0xbfeb035d	-1.8360401
112	0xc00fd30e	-2.2472568
113	0xbf68308e	-0.9069909
114	0xbe5e07d1	-0.21682669
115	0xc004a222	-2.0723958
116	0xbc42343b	-0.011853273
117	0xbd222bbc	-0.03959249
118	0x3fff5d7e	1.9950407
119	0xbf217b73	-0.63078994
120	0xc005e3ac	-2.092021
121	0xbf6abe2f	-0.9169645
122	0xc01f08b4	-2.4849062
123	0x3fa19bcd	1.2625672
124	0xc0361b88	-2.8454304
125	0xbf5fe7f8	-0.8746333
126	0xbfd89cd5	-1.6922861
127	0xc03d405c	-2.9570532
128	0xc040585b	-3.0053928
129	0xbf73305f	-0.94995683
130	0xbee3bf83	-0.4448205
131	0x3e1581de	0.14600322
132	0x4042d808	3.0444355
133	0x3feabb0d	1.8338333
134	0x3fdda843	1.7316974
135	0xc0187907	-2.382387
136	0x4080db75	4.026789
137	0x40ba2ec4	5.8182087
138	0xbf17d1a8	-0.59304285
139	0xbf9c59d5	-1.2214915
140	0xbe99e160	-0.3005476
141	0xbfb7421e	-1.4317052
142	0xc013ddaf	-2.3104055
143	0xbf648fe1	-0.8928204
144	0x3f12d6d8	0.57359076
145	0xbfb1897b	-1.3870081
146	0xbfe382fe	-1.7774351
147	0x3fa05d58	1.2528486
148	0xbf9041ea	-1.1270115
149	0xbfab132a	-1.3365223
150	0x3edb4b34	0.42830813
151	0xbff38063	-1.9023556
152	0xbfad0f7a	-1.3520348
153	0xbfbaeb4d	-1.4603058
154	0xbfbcc1d1	-1.4746648
155	0xbe5b36f0	-0.21407676
156	0xbf6c0eca	-0.92210066
157	0xbf95a4ea	-1.1690953
158	0x3ef5e468	0.48025823
159	0xbf9f41f3	-1.2442001
160	0xbf5d2c9b	-0.8639619
161	0x3e101bc4	0.14073092
162	0xbf242994	-0.64125943
163	0xbe0221cd	-0.12708206
164	0xc02af922	-2.6714559
165	0xbe7538ac	-0.239474
166	0x3e6b6af9	0.22990026
167	0xbfe80612	-1.8126853
168	0xbf41614c	-0.7553909
169	0xbf2d31e1	-0.67654234
170	0xbf834cf5	-1.025786
171	0x3f3d2355	0.7388204
172	0x3cb8f29b	0.02257662
173	0x3f9c87f3	1.2228988
174	0x3f551c6d	0.832465
175	0x3e005ac2	0.12534621
176	0x3f2d9563	0.6780607
177	0x3e61340c	0.2199251
178	0x3f3a9716	0.7288679
179	0x3f01c86f	0.5069646
180	0xbf1b6bdc	-0.60711455
181	0x3e8f51db	0.27992138
182	0xbf142556	-0.5786947
183	0x3e36ae79	0.17839994
184	0xbec8ce94	-0.39220107
185	0xbed515fd	-0.41618338
186	0x3e98ddc6	0.298567
187	0xbe888963	-0.26667318
188	0x3cf4b425	0.029871056
189	0x3f8558c3	1.0417713
190	0xbfe6b009	-1.8022472
191	0xbeff55a3	-0.49870023
192	0x3f90103f	1.1254958
193	0xbfa8fac7	-1.3201531
194	0xbfc4764b	-1.53486
195	0x3f41edbf	0.75753397
196	0xbf9800cc	-1.1875243
197	0xbf88c66e	-1.0685556
198	0xbe870fa3	-0.26379117
199	0xbe379935	-0.17929538
200	0xbc160d3a	-0.009158427
201	0xbddad1d0	-0.1068455
202	0xbd4b5de8	-0.049650103
203	0xbc9c513f	-0.01908171
204	0xbb699403	-0.00356412
205	0x3e98250b	0.29715762
206	0x3e3645f0	0.17800117
207	0xbf78a6d6	-0.9712957
208	0xbe462d4c	-0.19353217
209	0x3e358d7f	0.17729758
210	0xbedcaa69	-0.43098763
211	0x3e603831	0.21896435
212	0x3f18c438	0.59674406
213	0xbe00770c	-0.12545413
214	0x3f5c16ce	0.859723
215	0x3f620439	0.88287693
216	0x3f13efcf	0.57787794
217	0xbfa6fdcf	-1.3046206
218	0xbf3d06f9	-0.73838764
219	0xbee39de9	-0.44456413
220	0xbfdda029	-1.7314502
221	0xbfbea680	-1.4894562
222	0xbe67886a	-0.22610632
223	0xbf863d47	-1.048745
224	0xbf293e5b	-0.6611077
225	0xbf31a3f7	-0.69390815
226	0xbc99e966	-0.01878805
227	0x3f161155	0.58620197
228	0xbf3c528e	-0.7356347
229	0xbf208437	-0.62701744
230	0x3ec18b3b	0.37801537
231	0xbf11fd8b	-0.570275
232	0xbdf7043a	-0.12061353
233	0x3f31597c	0.6927717
234	0xbfd41553	-1.6569008
235	0x3ebfef7d	0.37487403
236	0x3f644be6	0.8917831
237	0xbfaa8c50	-1.332407
238	0x3f231b8f	0.63713926
239	0x3f95f7d6	1.1716259
240	0xbf81439a	-1.0098755
241	0x3eb60280	0.35548782
242	0x3f9d64b1	1.2296354
243	0xbf0d8bd1	-0.5529147
244	0xbf81c5bc	-1.0138469
245	0xbf9d4e58	-1.2289534
246	0xbed9c21e	-0.42530912
247	0xbf7801c4	-0.96877694
248	0xbfdb34a6	-1.7125442
249	0xbe1e5a10	-0.15464044
250	0x3efcc87c	0.49371707
251	0x3d264550	0.040593445
252	0x4017c151	2.371174
253	0xbc906a7c	-0.0176289
254	0x3fbc8e99	1.4731017
255	0x3fe8f7e2	1.8200648

layer2.0.bias f4 [32]
0	0x3c2c8be6	0.010531401
1	0xbdbe7296	-0.09299199
2	0xbbd7e813	-0.0065889447
3	0xbd913cad	-0.07091651
4	0x3d5de273	0.054171037
5	0xbd993e84	-0.07482627
6	0x3d0db24c	0.034593865
7	0x3c932a9c	0.017964654
8	0x3dc1479e	0.09437488
9	0x3d06f359	0.03294692
10	0xbd11301f	-0.035446282
11	0x3e0b2ba1	0.13590862
12	0x3b6fcf76	0.0036592162
13	0x3daa3abb	0.08311983
14	0x3da4f07e	0.08053683
15	0x3c69f991	0.014280693
16	0x3d5fffbc	0.054687247
17	0xbcf378f5	-0.029720763
18	0x3d9af96d	0.075671054
19	0xbd6bf3e3	-0.057605635
20	0x3d897bf5	0.06713096
21	0xbe0d6f7c	-0.13812059
22	0x3d1be5b0	0.038060844
23	0xbaa14224	-0.0012303037
24	0x3d3b1229	0.045671616
25	0xbd4c8ab3	-0.04993696
26	0x3bc04ac7	0.005868289
27	0x3d4fddc4	0.0507486
28	0xbd47efcf	-0.048812684
29	0x3d9ec490	0.07752335
30	0x3b235548	0.0024922658
31	0x3da8cfa5	0.0824273

layer2.1.weight f4 [32]
0	0x406a2cb8	3.6589794
1	0x3e8a828b	0.2705272
2	0x3fdbe98e	1.718065
3	0x4029c2c3	2.6525123
4	0x3f99ca51	1.2014867
5	0x400bbbd4	2.183339
6	0x3fc3a480	1.5284576
7	0x401de3bf	2.4670255
8	0x3ffea32c	1.9893546
9	0x3f85549f	1.0416449
10	0x402c1b81	2.6891787
11	0x400020e1	2.0020068
12	0x4005221f	2.0802076
13	0x3ffac61a	1.9591706
14	0x40093cf0	2.1443443
15	0x3fa2ba9a	1.2713196
16	0x40449150	3.0713692
17	0x400664b3	2.0998962
18	0x3fe767e5	1.8078581
19	0x402d617c	2.709075
20	0x3facba7f	1.3494414
21	0x40207e19	2.5076964
22	0x4048b5c9	3.1360953
23	0x40093a0a	2.1441674
24	0x401e2f0b	2.4716213
25	0x405a3b75	3.409879
26	0x3ff73797	1.931384
27	0x3ff02c75	1.8763567
28	0x40747f0d	3.8202546
29	0x3fc9141c	1.5709262
30	0x4015c762	2.3402944
31	0x4021d4a5	2.5286038

layer2.1.bias f4 [32]
0	0x3e3cb207	0.18427287
1	0xbf6b19f0	-0.9183645
2	0xbf4b3176	-0.79372346
3	0xbfb93e9c	-1.4472232
4	0xbed16f74	-0.40905344
5	0xbf698299	-0.912149
6	0xbf0be940	-0.54652786
7	0xbf88f284	-1.069901
8	0xbf7cec71	-0.9879828
9	0xbf53606a	-0.8256899
10	0xbfe9c0f1	-1.8262006
11	0xbf2634f4	-0.6492455
12	0xbfb48de4	-1.4105802
13	0xbfa81f2f	-1.3134516
14	0xbf5af1b5	-0.85525066
15	0xbe8d0d7f	-0.2754936
16	0xbeb9e937	-0.3631074
17	0xbf435987	-0.7630848
18	0xbf726c84	-0.9469683
19	0xbee18c86	-0.44052523
20	0x3eb746ed	0.357963
21	0xbf553f9c	-0.83300185
22	0xbfbd6249	-1.4795619
23	0xbfaf4bf2	-1.3695052
24	0xbff9cada	-1.951503
25	0xbef72d6d	-0.48276845
26	0xbf4f9182	-0.810814
27	0xbf9c613d	-1.2217175
28	0x3e6c8536	0.23097691
29	0xbf97387a	-1.181411
30	0xbe979363	-0.29604635
31	0xbf25a33d	-0.64702207

layer2.1.running_mean f4 [32]
0	0xc2841db8	-66.058044
1	0xc20754d4	-33.83284
2	0xc11e372d	-9.888471
3	0xc0f3a1d9	-7.613507
4	0xc280fd20	-64.494385
5	0xc185732e	-16.68124
6	0xc1836593	-16.424597
7	0xc0b888ae	-5.7666845
8	0x40d4a905	6.6456323
9	0x40f8e34a	7.7777452
10	0xc1b3346f	-22.400602
11	0xc1c0550d	-24.041529
12	0xc21a869d	-38.63146
13	0xc1612607	-14.071784
14	0xc1404fb1	-12.019456
15	0xbf8dee24	-1.10883
16	0xc20a1f21	-34.5304
17	0xc284909b	-66.28243
18	0xc1b6d058	-22.85173
19	0xc2411fcc	-48.28105
20	0xc2763567	-61.55215
21	0xc20ee68d	-35.725147
22	0xc05a9d7d	-3.4158623
23	0xc1bdc7a4	-23.72248
24	0xc26b4857	-58.820644
25	0xc26957d3	-58.335766
26	0xc16dae4f	-14.855056
27	0x422d4937	43.3215
28	0xc1f5396f	-30.653044
29	0x416cc481	14.797975
30	0xc226c3ca	-41.6912
31	0xc1afd768	-21.980179

layer2.1.running_var f4 [32]
0	0x459a6951	4941.1646
1	0x44a1d3ce	1294.6189
2	0x45406f1e	3078.9448
3	0x44dece81	1782.4532
4	0x450a4c92	2212.7856
5	0x450c5798	2245.4746
6	0x451b7d2a	2487.8228
7	0x44d3b603	1693.6879
8	0x4527ee4f	2686.8943
9	0x4554ea15	3406.6301
10	0x44b61990	1456.7988
11	0x451c835b	2504.2097
12	0x44e5b7f9	1837.7491
13	0x44d83b29	1729.8488
14	0x44fc19a7	2016.8016
15	0x44e7f422	1855.6292
16	0x45607427	3591.2595
17	0x456cbfca	3787.9868
18	0x44c851b2	1602.553
19	0x4551a446	3354.267
20	0x4515695d	2390.5852
21	0x452b2575	2738.341
22	0x44d7cc6d	1726.3883
23	0x44de8f72	1780.4827
24	0x44cc1093	1632.518
25	0x45805452	4106.54
26	0x450586ce	2136.4253
27	0x44e05382	1794.6096
28	0x452d0741	2768.4534
29	0x4508202e	2178.0112
30	0x449e4809	1266.2511
31	0x4508de6d	2189.9016

layer3.0.weight f4 [64, 32, 3, 3]
0	0xc006c97b	-2.1060474
1	0xc02daeb8	-2.713789
2	0xc03ca92e	-2.947826
3	0x3fbd0b78	1.4769125
4	0x3f88297e	1.0637662
5	0x3fd315a6	1.6490982
6	0x4014f595	2.3274891
7	0x3fc065e4	1.5031095
8	0x3ece3dd0	0.40281534
9	0x3f630c81	0.88690954
10	0x3e2d9e28	0.16954863
11	0xbe980a14	-0.2969519
12	0x3ec899a8	0.3917973
13	0x3f1d3ec6	0.6142391
14	0x3e8083a3	0.2510043
15	0xbf90026d	-1.125074
16	0xbe9219b5	-0.28535238
17	0xbefc233d	-0.49245635
18	0xbee61734	-0.44939578
19	0xc0121732	-2.2826657
20	0xc003825b	-2.0548313
21	0xbfe85add	-1.8152729
22	0xc0263f6f	-2.5976217
23	0xc097f419	-4.748547
24	0xbde25c4d	-0.11052761
25	0xbde5f6bf	-0.11228704
26	0xbfb09a53	-1.3797096
27	0x3fd556ce	1.6667116
28	0x3e958f81	0.29211047
29	0xc04e843a	-3.2268205
30	0x3f22efe6	0.63647306
31	0xbf5282d6	-0.8223089
32	0x3f9f4b7c	1.2444911
33	0xbe365009	-0.17803968
34	0xbfd187fc	-1.6369624
35	0xc01de867	-2.4673097
36	0x3ec86732	0.39141232
37	0xbf71f1a2	-0.9450933
38	0x4034e207	2.8262956
39	0xbfe21299	-1.7661926
40	0x3f316334	0.69291997
41	0x3f8158af	1.0105189
42	0x3eb17d11	0.3466573
43	0x4008527c	2.1300344
44	0x3f9edf29	1.2411853
45	0x3e9ac184	0.30225766
46	0xbfc807b1	-1.5627347
47	0x3f8dee5c	1.1088367
48	0x3e9ae6ab	0.3025411
49	0xbfb0a47d	-1.3800198
50	0xbc689c46	-0.014197415
51	0xbf12c6eb	-0.57334775
52	0x3f3ef12b	0.74586743
53	0x3f212e2d	0.62961084
54	0xbf4c48ea	-0.7979876
55	0xbff5ada7	-1.919362
56	0xc01b874f	-2.4301336
57	0x3efd0123	0.4941493
58	0xbf58531f	-0.8450183
59	0xbeea8a8c	-0.45808828
60	0x3fa6d540	1.3033829
61	0xc01b10a0	-2.4228897
62	0xc05631a9	-3.346781
63	0x402b4780	2.676239
64	0x3fa030d9	1.2514907
65	0x3f21ad0e	0.63154685
66	0xbfca2159	-1.5791427
67	0xc0688ff3	-3.633786
68	0xc0623c66	-3.5349364
69	0xbfaefdeb	-1.367124
70	0xbfca9ddc	-1.5829425
71	0x3f8dc7ef	1.107664
72	0xbf2f3724	-0.6844351
73	0xbfffc627	-1.9982346
74	0xbfc5d150	-1.5454502
75	0xbf46304c	-0.77417445
76	0xbfbabd4a	-1.4589016
77	0x3f68ebf8	0.9098506
78	0x3fcb17d7	1.586665
79	0xbe77b8a5	-0.2419153
80	0xbf8d5c43	-1.1043781
81	0x401c2e37	2.4403207
82	0x3fb4a6c6	1.4113395
83	0xbff44d36	-1.9086063
84	0x4001f669	2.0306647
85	0xbf1050eb	-0.5637347
86	0xbfef0c3c	-1.8675609
87	0x3f11a1de	0.56887615
88	0xbfc9db4c	-1.5770049
89	0xbf5d074b	-0.86339253
90	0x401406b6	2.3129096
91	0xbea1711a	-0.31531602
92	0x3f800b4d	1.0003449
93	0x3f8b5f99	1.0888549
94	0xc0013c69	-2.0193121
95	0x3f59cc19	0.85077053
96	0xbfbba3ed	-1.4659401
97	0x3e890c6f	0.267673
98	0xbfe0fa63	-1.7576412
99	0x401f8c70	2.4929466
100	0x3f976e07	1.1830453
101	0xbf38fa16	-0.722566
102	0x3fa3b2cd	1.2788941
103	0x3f8c657c	1.096847
104	0xbfb8693a	-1.4407113
105	0xbedbe288	-0.42946267
106	0xbf4ba769	-0.7955232
107	0xbffceb6b	-1.9759344
108	0x3e306ed3	0.17229776
109	0xbe84930a	-0.25893432
110	0x401a3ccf	2.4099615
111	0xbfa83124	-1.3139997
112	0x3eccb191	0.39979222
113	0x3ebdf490	0.3710065
114	0xbfb6c2ab	-1.4278158
115	0x400b0116	2.1719413
116	0x3ea3927a	0.3194769
117	0x3f503531	0.81331164
118	0x3d439800	0.04775238
119	0x3f254361	0.6455594
120	0x3e520379	0.20509137
121	0x3e0f35a3	0.13985305
122	0xbe3d9505	-0.18513878
123	0xbf5ac7df	-0.8546123
124	0xbf83eca3	-1.0306591
125	0x3f28430f	0.65727323
126	0xbe1865bf	-0.14882563
127	0xbf8b51d6	-1.0884349
128	0x3d6ff11e	0.058579557
129	0xc03293e0	-2.7902756
130	0x3d1824dc	0.037144527
131	0x3ba5fd47	0.0050655934
132	0xbe2e1eba	-0.17003909
133	0x3e3a4651	0.18190886
134	0xbfc595b4	-1.5436311
135	0xbf94c84d	-1.1623627
136	0xbdde6dec	-0.1086081
137	0xbb8cdf47	-0.0042990777
138	0x3f86f159	1.0542403
139	0x3f3172dd	0.6931589
140	0x3f63cac2	0.8898126
141	0xbfc28f0b	-1.5199903
142	0xbf62c1fa	-0.88577235
143	0xba44c77e	-0.00075065333
144	0x3f5516b3	0.8323776
145	0x3f3c77fe	0.73620594
146	0x3fbd8821	1.4807168
147	0xbfc2e395	-1.5225703
148	0xc01fcc2a	-2.4968362
149	0xc07a9495	-3.9153187
150	0xc05ffac6	-3.499681
151	0xc00483c6	-2.0705428
152	0xbfa11b31	-1.2586423
153	0xbf302afd	-0.68815595
154	0x3efbc89f	0.491765
155	0xbec5ab06	-0.38607043
156	0x3fe3cfef	1.7797831
157	0x3f6c7180	0.9236069
158	0xbf0f1c71	-0.55902773
159	0xbfa58859	-1.2932235
160	0xbf0a20e3	-0.5395643
161	0xbf67f02b	-0.9060084
162	0x3e3cf195	0.18451531
163	0xbe93a9fa	-0.2884062
164	0xbf976b32	-1.1829588
165	0x3f0f06c3	0.5586969
166	0x3f75ecca	0.96064436
167	0x3fe8ec0b	1.8197035
168	0xc0048c13	-2.0710495
169	0xbe827e3c	-0.25486934
170	0xbfb8b386	-1.4429786
171	0x3ea1ba17	0.31587288
172	0xbf5e3493	-0.8679897
173	0xbfae6e23	-1.3627361
174	0xbeca64c2	-0.39529997
175	0xc052e1c2	-3.2950292
176	0xc0333755	-2.8002522
177	0x3e732d66	0.23747787
178	0xbfac9461	-1.3482782
179	0x3c291812	0.01032068
180	0x3f8cfa7e	1.1013944
181	0xbed4da1b	-0.4157265
182	0xbffaed6f	-1.9603709
183	0x3f0aeac1	0.54264456
184	0xbe6702a3	-0.225596
185	0x3dc3acc7	0.09554439
186	0x4026de10	2.6073036
187	0x4017794e	2.3667789
188	0x403dfba8	2.9684849
189	0xbf3975d0	-0.7244539
190	0x3e801a63	0.2502013
191	0x400b8f73	2.1806304
192	0xc001a41f	-2.0256422
193	0xbf13033f	-0.5742683
194	0xbfcda8f1	-1.6067182
195	0xbf770a0c	-0.96499705
196	0x3f4e47c7	0.80578274
197	0xbfaf5e98	-1.3700743
198	0xc080bbd0	-4.0229263
199	0x3f1022d6	0.56303155
200	0xbfbbe8ff	-1.468048
201	0xbf6e868a	-0.9317404
202	0xbe63506d	-0.22198649
203	0xbed804e9	-0.42191246
204	0x400d7375	2.210172
205	0x3fff6156	1.995158
206	0x3eb54434	0.35403597
207	0x3f3982f5	0.7246545
208	0x3db5e165	0.08880881
209	0x3e142dc7	0.14470588
210	0x4025d602	2.591187
211	0x4044307d	3.0654595
212	0x4038920c	2.883914
213	0x3f2c479f	0.67296785
214	0xbf2cfc1d	-0.67572194
215	0x3ed6d50f	0.41959426
216	0x3f869a73	1.0515884
217	0x3f97a8b5	1.184836
218	0xbeaa44ef	-0.33255717
219	0x3fdf88d3	1.746363
220	0x3f996a81	1.1985627
221	0xbfaf8c0e	-1.3714616
222	0x3f2c7a9a	0.67374575
223	0xbf7fde71	-0.99948794
224	0x3d3fdec7	0.046843316
225	0xbedc2fec	-0.4300531
226	0xbf4729f0	-0.77798367
227	0xbe4b2485	-0.1983815
228	0x3eb957eb	0.3619989
229	0x3f3f13fd	0.74639875
230	0xbf9a2a09	-1.2044078
231	0x4001bb83	2.0270698
232	0x3e1d8351	0.15382124
233	0xbe8b34bf	-0.2718868
234	0x3fdf5836	1.7448795
235	0xbebf8d89	-0.3741267
236	0xc0565675	-3.349027
237	0xbff01bb3	-1.8758453
238	0xc04bb1b6	-3.1827216
239	0xc06063fc	-3.5061026
240	0xc03ec218	-2.9805965
241	0xc03366cd	-2.8031495
242	0x3f073a83	0.52823657
243	0xbfb38ce3	-1.402737
244	0xc03149f1	-2.770138
245	0x3fbc6120	1.471714
246	0xc0736773	-3.803189
247	0xc037a574	-2.8694735
248	0xbfb7710e	-1.4331377
249	0x3ecd7f2a	0.4013608
250	0x401b6646	2.4281173
251	0x405a5163	3.4112175
252	0xc01f8b80	-2.4928894
253	0xbfac4957	-1.3459882
254	0xc046f77c	-3.1088552
255	0xbf0a46a7	-0.54014057

layer3.0.bias f4 [64]
0	0xbd9b11b5	-0.07571737
1	0xbcfeba76	-0.03109477
2	0xbdc5466f	-0.09632575
3	0xbda5301c	-0.08065817
4	0xbd3aa54d	-0.0455678
5	0xbd8f0816	-0.06983964
6	0xbd2d1739	-0.042258475
7	0xbcb445d3	-0.022005951
8	0xbd3100fb	-0.043213826
9	0xbdb2a7d0	-0.08723414
10	0xbd104d07	-0.03522971
11	0xbcf838d2	-0.030300532
12	0xbddec887	-0.10878091
13	0xbd332834	-0.043739513
14	0xbd4f6bfa	-0.050640084
15	0xbcafb144	-0.021446832
16	0x3b883a14	0.004157314
17	0x3c446ac8	0.011988349
18	0x3ac3b901	0.0014932455
19	0x3c8c4b13	0.017125642
20	0xbcbba260	-0.022904575
21	0xbe0ce151	-0.13757826
22	0xbd7d11f3	-0.061784696
23	0xbd80185e	-0.06254648
24	0x3c4234ba	0.011853391
25	0x3c8124c7	0.015764607
26	0xbd835549	-0.06412751
27	0xbd84fbe4	-0.06493357
28	0x3c4544be	0.012040315
29	0x3d303e20	0.043027997
30	0xbd9ac866	-0.07557754
31	0xbc1b737f	-0.009487986
32	0xbd3954da	-0.045246936
33	0xbd02504a	-0.03181485
34	0xbd83a93b	-0.064287625
35	0xbccd3909	-0.02505161
36	0xbcbe37af	-0.023219911
37	0xbbfc0f69	-0.0076922667
38	0xbd9e727f	-0.07736682
39	0x3d8d5ba6	0.06902246
40	0x3c925451	0.01786247
41	0x3d50cfa2	0.050979264
42	0xbd7f6782	-0.062354572
43	0xbdd183dc	-0.10230228
44	0xbc01a9a5	-0.007913982
45	0xbc808d06	-0.015692245
46	0xbdda7396	-0.106665775
47	0xbcf7ada4	-0.030234165
48	0xbc87f60e	-0.01659682
49	0xbcf900aa	-0.030395824
50	0xbd8a5039	-0.067535825
51	0xbd80d8bb	-0.06291338
52	0xbc4027d7	-0.011728249
53	0xbd260461	-0.04053152
54	0x3d4b5b93	0.04964788
55	0xbd89b97a	-0.0672483
56	0xbdd74fdb	-0.10513278
57	0xbd2b4e34	-0.041822627
58	0xbd113d59	-0.035458896
59	0xbdac70b8	-0.08419937
60	0xbd88ebcd	-0.066856004
61	0xbdf8e134	-0.12152329
62	0xbddc4d4a	-0.10756929
63	0xbd844a98	-0.0645954

layer3.1.weight f4 [64]
0	0x3f05c514	0.5225384
1	0x3eacf616	0.337815
2	0x3f7aaa7e	0.979164
3	0x3f8830bb	1.0639871
4	0x3f72533e	0.9465827
5	0x3e9b3e74	0.30321085
6	0x3f721828	0.9456811
7	0x3db276ed	0.087140895
8	0x3eae6648	0.3406241
9	0x3f9ea9ff	1.2395629
10	0x3f8591b5	1.0435091
11	0x3e60b910	0.21945596
12	0x3f648797	0.89269394
13	0x3f279331	0.6545897
14	0x3f7606db	0.9610421
15	0x3f313ed9	0.6923652
16	0x3e7d1e46	0.2471858
17	0x3f8b6aa9	1.0891925
18	0x3e46eee1	0.19427063
19	0x3f2e96b9	0.68198735
20	0x3f67f50f	0.90608305
21	0x3f97b58a	1.1852276
22	0x3ecf52d7	0.4049289
23	0x3f3ce1b8	0.7378192
24	0x3f4f5749	0.8099256
25	0x3d8f5656	0.06998889
26	0x3e9a5f79	0.30150965
27	0x3f721ed0	0.94578266
28	0x3f4d7338	0.80253935
29	0x3f76be8a	0.9638449
30	0x3f68ea70	0.90982723
31	0x3f63daf9	0.89006
32	0x3f622021	0.88330275
33	0x3e81e590	0.25370455
34	0x3f895b09	1.0730907
35	0x3fa8eb45	1.3196799
36	0x3f7d9f54	0.9907124
37	0x3f68c204	0.90921044
38	0x3d96060e	0.073253736
39	0x3f60a920	0.87758064
40	0x3f8fbb73	1.122908
41	0x3f5b3aa9	0.85636383
42	0x3e9e2dd5	0.30894342
43	0x3f6a97af	0.916377
44	0x3f83b786	1.0290382
45	0x3d5c1629	0.05373207
46	0x3f431861	0.76209074
47	0x3f744790	0.95421696
48	0x3f9f35a7	1.2438248
49	0x3f685bfa	0.90765345
50	0x3f31c065	0.69434196
51	0x3e33b596	0.17549738
52	0x3f2e18ad	0.680064
53	0x3f66f48d	0.90216905
54	0x3e849e66	0.25902098
55	0x3f979d53	1.1844887
56	0x3f6cd903	0.92518634
57	0x3f2417ee	0.64099014
58	0x3eb06269	0.3445008
59	0x3e86ecba	0.26352483
60	0x3f7c96ed	0.98667794
61	0x3f61af8a	0.88158476
62	0x3f928899	1.1447936
63	0x3f74bc50	0.9559984

layer3.1.bias f4 [64]
0	0xbf90fb48	-1.1326685
1	0xbf913e73	-1.1347183
2	0xbfd2d29a	-1.647052
3	0xbfbf7352	-1.4957068
4	0xbfe93f59	-1.8222457
5	0xbfa2a385	-1.2706152
6	0xbfb432db	-1.407802
7	0xbfa23df2	-1.2675154
8	0xbfbf420a	-1.4942029
9	0xbf8d4adb	-1.1038469
10	0xbf953cb3	-1.1659149
11	0xbf7ce7af	-0.9879102
12	0xbfc59edc	-1.5439105
13	0xbfaea716	-1.364474
14	0xbf8f5d46	-1.120034
15	0xbffe372a	-1.9860585
16	0xbf8de129	-1.1084338
17	0xbfb64978	-1.4241171
18	0xbf9fae3f	-1.2475051
19	0xbf827f36	-1.0195072
20	0xbf969e89	-1.1767131
21	0xbff08491	-1.8790456
22	0xbf852f41	-1.0405046
23	0xbfaa058f	-1.3282946
24	0xbfb5edd2	-1.4213202
25	0xbf915f3c	-1.1357188
26	0xbf96125c	-1.1724353
27	0xbf4e593f	-0.8060493
28	0xbfd7458a	-1.6818097
29	0xbf96d5cd	-1.1783997
30	0xbf91a302	-1.1377871
31	0xbf9ed72f	-1.2409419
32	0xbfb4bd97	-1.4120358
33	0xbf624037	-0.88379234
34	0xbfccdc7d	-1.6004788
35	0xbfc2aae7	-1.5208405
36	0xbf4bba28	-0.79580927
37	0xbfa18cc8	-1.2621088
38	0xbfe8e082	-1.8193514
39	0xbf84c807	-1.0373544
40	0xbfafbd3c	-1.3729625
41	0xbfc71190	-1.5552235
42	0xbfa825ec	-1.3136573
43	0xbfcfde8e	-1.6239793
44	0xbf89a274	-1.0752702
45	0xbf73fe4c	-0.953099
46	0xbfa1e1aa	-1.2646992
47	0xbf6bd2a9	-0.92118317
48	0xbf9ea44d	-1.2393891
49	0xbfaa1353	-1.3287147
50	0xbfde9020	-1.7387733
51	0xbf843a82	-1.0330355
52	0xbfd26180	-1.6436005
53	0xbfae2948	-1.3606348
54	0xbfe6bea8	-1.8026934
55	0xbfc251c7	-1.5181206
56	0xbfba8bdb	-1.457393
57	0xc010efaf	-2.2646291
58	0xbfab63c1	-1.3389817
59	0xbf6f83e8	-0.9356065
60	0xbfadb3d5	-1.3570505
61	0xbfe6294c	-1.7981353
62	0xbf9c60c9	-1.2217036
63	0xbfffdaa3	-1.9988598

layer3.1.running_mean f4 [64]
0	0xc253b1da	-52.923683
1	0xc2003091	-32.04743
2	0xc1bf7b6a	-23.93526
3	0xc299aaae	-76.83336
4	0xc220891a	-40.13389
5	0xc185adac	-16.7098
6	0xc27a54b4	-62.582718
7	0xc13cb595	-11.794332
8	0xc24dc571	-51.442814
9	0xc2a73548	-83.604065
10	0xc2e95833	-116.672264
11	0xc1e43ba0	-28.529114
12	0xc24aefeb	-50.734295
13	0xc29b7a57	-77.738945
14	0xc206cddc	-33.701035
15	0xc236f5da	-45.74009
16	0xc2260072	-41.500435
17	0xc2aa3c94	-85.11832
18	0x3fa346e4	1.2756009
19	0xc2a2015b	-81.00265
20	0xc2414050	-48.312805
21	0xc27d4e62	-63.326546
22	0xc230a3cd	-44.15996
23	0xc2932208	-73.56647
24	0xc0113600	-2.268921
25	0xc21a6421	-38.597782
26	0xc2054b12	-33.32331
27	0xc2634608	-56.81839
28	0xbfbaf00a	-1.4604504
29	0xc29b76b2	-77.73183
30	0xc21a4b48	-38.573517
31	0xc239cb8c	-46.448776
32	0xc1d7b9b5	-26.965677
33	0xc1d00350	-26.001617
34	0xc26d2a46	-59.291283
35	0xc293e6a1	-73.95045
36	0xc2a6b567	-83.3543
37	0xc226b159	-41.67319
38	0xc141bd1b	-12.108668
39	0xc219556b	-38.333416
40	0xc206c147	-33.688747
41	0xc221249e	-40.28576
42	0xc2016b5b	-32.35484
43	0xc272049f	-60.504513
44	0xc20d7f53	-35.37434
45	0xc1c6164d	-24.76089
46	0xc28dcdf4	-70.90225
47	0xc2e0f506	-112.47856
48	0xc304a693	-132.65068
49	0xbfe95e15	-1.8231837
50	0xc25a5d42	-54.591072
51	0xc11e8eae	-9.909834
52	0xc26dd3e8	-59.45694
53	0xc2c4a0ae	-98.31383
54	0xc2292181	-42.28272
55	0xc294fb3f	-74.490715
56	0xc24bc00e	-50.937553
57	0xc16e15b0	-14.880295
58	0xc217be4b	-37.935833
59	0xc18ddabe	-17.731808
60	0xc264309e	-57.047478
61	0xc2256403	-41.347668
62	0xc286f718	-67.482605
63	0xc2581134	-54.0168

layer3.1.running_var f4 [64]
0	0x453bb051	3003.0198
1	0x442fcbc9	703.18414
2	0x456041d8	3588.1152
3	0x456a6906	3750.564
4	0x4576c117	3948.068
5	0x44907d12	1155.9084
6	0x4584bb39	4247.403
7	0x44c32fc5	1561.4928
8	0x45501a6f	3329.652
9	0x45681006	3713.0015
10	0x45a15e2d	5163.772
11	0x44d30967	1688.2938
12	0x4580164d	4098.7876
13	0x44f326b0	1945.209
14	0x455caae0	3530.6797
15	0x4526947d	2665.2805
16	0x4495fae3	1199.8402
17	0x4567ad22	3706.8208
18	0x44aee198	1399.0498
19	0x4581fc68	4159.551
20	0x455d2e7f	3538.906
21	0x45133c12	2355.7544
22	0x4542ba8f	3115.66
23	0x4532d216	2861.1304
24	0x452e386d	2787.5266
25	0x449d372b	1257.724
26	0x448b3bcc	1113.8687
27	0x458f60d4	4588.1035
28	0x44fb8d8a	2012.4231
29	0x457da99d	4058.6008
30	0x45a0ca7b	5145.31
31	0x45514df2	3348.8716
32	0x45385638	2949.3887
33	0x4409891e	550.14246
34	0x453d41e1	3028.1174
35	0x4526c802	2668.5005
36	0x45518d9b	3352.8503
37	0x456da46e	3802.2769
38	0x44d2ba0b	1685.8138
39	0x456d3a5e	3795.648
40	0x45354166	2900.0874
41	0x45230c9e	2608.7886
42	0x44d79bd6	1724.8699
43	0x45529db0	3369.8555
44	0x4585b9f3	4279.2437
45	0x448fbb57	1149.8544
46	0x45ae68d2	5581.1025
47	0x455407e9	3392.4944
48	0x455af526	3503.3218
49	0x456a1a6b	3745.6511
50	0x4553bc48	3387.7676
51	0x441c6a79	625.66364
52	0x45450362	3152.2114
53	0x45a4e02b	5276.021
54	0x44b5bef3	1453.9672
55	0x450747d8	2164.4902
56	0x45565386	3429.2202
57	0x452cc745	2764.4543
58	0x4505c3da	2140.2407
59	0x445bce05	879.21906
60	0x456cb76f	3787.4646
61	0x45219e34	2585.8877
62	0x45960ccb	4801.599
63	0x44f0b37e	1925.6091

fc.weight f4 [10, 1600]
0	0xbfd5308f	-1.6655444
1	0xc0122a2e	-2.2838244
2	0xbf0f7f47	-0.56053585
3	0x3d58ac13	0.052898478
4	0x3f811801	1.008545
5	0xbe7e8f08	-0.2485925
6	0xbdeaabb3	-0.1145853
7	0x3e47208c	0.1944601
8	0x3f4e3ba7	0.8055977
9	0x3dda204d	0.10650692
10	0xbf89d648	-1.0768518
11	0xbf656e58	-0.89621496
12	0xbf1419fc	-0.5785215
13	0xc00df326	-2.2179656
14	0xbfe8bb18	-1.8182096
15	0x3e7fe429	0.2498938
16	0x3f67035d	0.90239507
17	0xbf237cb0	-0.63862133
18	0xbfa9bcc5	-1.3260733
19	0x3e8af0a6	0.27136725
20	0x3f3b7908	0.73231554
21	0x3ed84899	0.42242888
22	0x3f7e368e	0.99301994
23	0x3e8b9f15	0.27269807
24	0xbe27fde8	-0.16405451
25	0xbe9f9c79	-0.31174067
26	0x3dc17381	0.09445859
27	0xbbf7ee48	-0.007566247
28	0x3d029bb7	0.031886782
29	0x3e90296e	0.28156608
30	0xbceacf8f	-0.028663425
31	0xbda1caf5	-0.07900039
32	0xbe52ed6e	-0.20598385
33	0xbe8c43c9	-0.27395466
34	0xbece0840	-0.4024067
35	0xbe331831	-0.17489697
36	0x3ea78cc8	0.32724595
37	0x3e087b3b	0.13328259
38	0xbef3c9d8	-0.47614932
39	0xbe68e46a	-0.22743383
40	0x3d191947	0.037377622
41	0x3dada79e	0.08479236
42	0x3e7f5872	0.24936083
43	0xbcb452db	-0.022012165
44	0xbd050ec2	-0.032484777
45	0xbbbcf9f1	-0.0057671
46	0x3e0d038e	0.13770887
47	0x3e59e700	0.21279526
48	0x3e0db5f4	0.13838941
49	0x3df8047c	0.1211023
50	0x3d885d2c	0.06658396
51	0xbd5dad09	-0.054120097
52	0x3f428c65	0.75995475
53	0x3fc282c3	1.5196155
54	0xbf085433	-0.5325348
55	0xbf80b6c4	-1.0055776
56	0xbf8961a8	-1.0732927
57	0xbf9a2105	-1.2041327
58	0xbf2ba8b4	-0.67054296
59	0xbffc5b3e	-1.9715345
60	0xbf7f53bc	-0.99737144
61	0xbf701e19	-0.93795925
62	0xbd82aade	-0.063802466
63	0xc00882db	-2.1329868
64	0xc06943d0	-3.644764
65	0xbfca1b00	-1.578949
66	0xbea741df	-0.32667443
67	0x3f498889	0.7872396
68	0x3f138eb8	0.57639647
69	0xbe66e7ff	-0.22549437
70	0xbf5b2b9c	-0.8561342
71	0xbfe9bb4b	-1.8260282
72	0xbf30aa72	-0.6901008
73	0xbf9df631	-1.2340757
74	0x3f6e7f14	0.93162656
75	0xbe39e713	-0.18154554
76	0xbf8c0ed1	-1.0942022
77	0xbf0283be	-0.5098227
78	0x3e930902	0.2871781
79	0x3f617762	0.8807279
80	0xbf256478	-0.6460643
81	0xbf940916	-1.1565273
82	0x3f528024	0.8222678
83	0xbf0b1ea6	-0.5434364
84	0x3e6f16a0	0.23348475
85	0xbed688e1	-0.41901305
86	0xc034dde9	-2.8260443
87	0xc018e3cd	-2.3889039
88	0xc03eccc9	-2.981249
89	0xc003661e	-2.0531077
90	0x3e60502d	0.21905585
91	0xbca2621a	-0.01982217
92	0xbf703cfe	-0.93843067
93	0x3f14eefd	0.5817717
94	0xbf64dbdf	-0.89397997
95	0xbf4a4c44	-0.7902262
96	0xbed1cb4c	-0.40975416
97	0xbf1e7bdf	-0.6190776
98	0xbfabd9e8	-1.3425875
99	0xbff75c41	-1.9325029
100	0x3ea563cf	0.3230271
101	0x3e97ec35	0.296724
102	0x3f8e2484	1.1104894
103	0xbee51579	-0.44742945
104	0x3ea6e818	0.32598948
105	0xbf8176d6	-1.0114391
106	0xbfad92b8	-1.35604
107	0x3ef54e2b	0.479112
108	0xc015ad3b	-2.3386981
109	0xbeb282a6	-0.34865302
110	0xbfaf99c4	-1.37188
111	0xbf0ef9a5	-0.5584968
112	0xbe3e0761	-0.18557502
113	0xbfc689c0	-1.5510788
114	0xbf2279af	-0.63466924
115	0xc02aea99	-2.6705687
116	0xc016519a	-2.3487306
117	0x3de73e6c	0.11291203
118	0xbcf054ae	-0.029337253
119	0x3f3adfcf	0.72997755
120	0xbee8bfdd	-0.4545888
121	0x3ed26285	0.4109079
122	0x3f8406e3	1.0314602
123	0x3f784385	0.96978027
124	0xbe56fb70	-0.20994353
125	0xbcbca90d	-0.023029828
126	0xbf05ee18	-0.5231643
127	0x3edbe626	0.42949027
128	0xbf1bba80	-0.6083145
129	0x3c87112d	0.016487682
130	0x3e9bcb4a	0.30428535
131	0x3f06f773	0.5272133
132	0xbe85711b	-0.26062855
133	0xbed6b4bf	-0.41934773
134	0xbe2ccfb7	-0.16876112
135	0x3ea0cb0a	0.31404907
136	0xbe500339	-0.2031373
137	0x3e36cc9c	0.1785149
138	0xbf4e45f4	-0.8057549
139	0xbed39d5c	-0.41330993
140	0x3e4a2ed1	0.19744422
141	0x3e761c37	0.240342
142	0xbdc1c2ee	-0.09461008
143	0xbd73da82	-0.059534557
144	0xbe21421b	-0.15747873
145	0x3ea77a59	0.3271053
146	0x3e6dde23	0.2322927
147	0xbf0f7c24	-0.560488
148	0xbe9963ed	-0.2995905
149	0xbe588dbb	-0.21147816
150	0xbf3c14b5	-0.73469096
151	0x3ec79309	0.38979366
152	0xbfe507fa	-1.7893059
153	0xc00939bb	-2.1441486
154	0xbd8be3a0	-0.068305254
155	0xbe003b1c	-0.12522548
156	0x3fcb85b7	1.5900182
157	0x3daeea79	0.08540816
158	0xbf843959	-1.0330001
159	0x3ffde77f	1.9836272
160	0xbfaa6f03	-1.3315128
161	0x3f403f44	0.75096536
162	0xbf4d0bb3	-0.80095977
163	0x3f15ded4	0.58543134
164	0x402b2b8e	2.6745334
165	0xbfd32838	-1.6496649
166	0xc000e8f5	-2.0142186
167	0xbfab0d1d	-1.3363377
168	0x3f65ff46	0.8984264
169	0x3f20a343	0.6274912
170	0xbf0f30e4	-0.55933976
171	0xc0b230b0	-5.5684433
172	0xc08146b3	-4.0398803
173	0xbfe27b9c	-1.7693973
174	0x3f80e2ac	1.0069175
175	0xbd93ae7c	-0.07211015
176	0x3e44cf87	0.1921979
177	0x3b892c5c	0.0041861963
178	0x3dcdc6db	0.10047694
179	0x3d01ab94	0.03165777
180	0xbe2231ba	-0.15839282
181	0xbe94a1e3	-0.2902976
182	0xbe50a308	-0.20374691
183	0xbe85ed4d	-0.2615761
184	0xbf38dac9	-0.7220884
185	0x3d423d70	0.047421873
186	0xbcb2cbdb	-0.021825721
187	0xbeb4c242	-0.35304457
188	0xbe9b64fa	-0.30350477
189	0xbeeb9bcd	-0.46017304
190	0xb9bc5001	-0.00035917762
191	0xbf03f032	-0.51538384
192	0x3c4c7073	0.012477982
193	0x3eec8522	0.46195322
194	0x3dc710f0	0.097200274
195	0x3cf184c9	0.029482262
196	0xbcb798c2	-0.022411708
197	0xbcdaf9bb	-0.026730409
198	0xbde2c2b3	-0.11072292
199	0xbd50223f	-0.05081391
200	0xbe3a447f	-0.18190192
201	0x3d5ab2e8	0.053393275
202	0xbedc9cac	-0.4308828
203	0xbfe9304d	-1.8217865
204	0x3e39b04e	0.18133661
205	0x3efeb042	0.4974385
206	0xbe564494	-0.20924598
207	0xbf70d5ad	-0.94076043
208	0xbef43336	-0.4769532
209	0x3f9af02c	1.2104545
210	0xbf6d8203	-0.9277651
211	0x3f203868	0.6258607
212	0x3e62641d	0.22108503
213	0x3fa325eb	1.2745947
214	0x3f724481	0.9463578
215	0xbcc79f84	-0.024368055
216	0xbdc9b908	-0.09849745
217	0x3e10d2bc	0.14142889
218	0x3f7a903a	0.9787632
219	0x3e6c0896	0.2305015
220	0xbf2b337b	-0.6687543
221	0xbf317db8	-0.69332457
222	0xbf8aaee1	-1.0834619
223	0xbe9a99d7	-0.30195495
224	0x3f1808b9	0.5938831
225	0xbd97cc32	-0.07411994
226	0x3c8e4bc9	0.017370122
227	0x3f987084	1.1909337
228	0x3f847a83	1.0349888
229	0x3ed9372d	0.42424908
230	0xbf92b577	-1.1461629
231	0x3eebdec6	0.460684
232	0x3fc4edd1	1.5385076
233	0xbe2f2954	-0.17105609
234	0xbd0e62c0	-0.034762144
235	0xc02ec46f	-2.7307394
236	0xbfbcb4f7	-1.4742726
237	0x3ecddf2d	0.40209332
238	0xc050a331	-3.2599604
239	0xc0601713	-3.5014083
240	0xc049fc86	-3.1560378
241	0xbf92dacc	-1.1473022
242	0x3ffcebf4	1.9759507
243	0xbfe96298	-1.8233213
244	0xc0688664	-3.6332026
245	0xc08307f8	-4.0947227
246	0x3f5a7b20	0.85344124
247	0x402c2576	2.6897864
248	0xbfc0d52d	-1.5065056
249	0xbfe226cb	-1.7668089
250	0xbf521d06	-0.82075536
251	0xbf1fd9ac	-0.62441516
252	0xbfe715e3	-1.8053554
253	0x3e95952f	0.2921538
254	0xbe25b613	-0.16182737
255	0x3fc749b2	1.5569365

fc.bias f4 [10]
0	0x3fa2fe23	1.2733806
1	0x405340b3	3.300824
2	0xbf054460	-0.52057457
3	0xbf22b6d9	-0.63560253
4	0xbf3e8205	-0.74417144
5	0xbe977a69	-0.2958558
6	0xbf1f231f	-0.62162966
7	0x3e75e3ae	0.24012634
8	0x3c92a061	0.01789874
9	0xbf66a875	-0.90100795
